…
 hsv_h=0.015, hsv_s=0.7, hsv_v=0.4, degrees=0.0, translate=0.1, scale=0.5, shear=0.0, perspective=0.0, flipud=0.0, fliplr=0.5, mosaic=1.0, mixup=0.0, copy_paste=0.0, cfg=None, v5loader=False, tracker=botsort.yaml, save_dir=runs/segment/train\nDownloading https://ultralytics.com/assets/Arial.ttf to /root/.config/Ultralytics/Arial.ttf...\n100%|██████████| 755k/755k [00:00&lt;00:00, 25.9MB/s]\nOverriding model.yaml nc=80 with nc=1\n\n                   from  n    params  module                                       arguments                     \n  0                  -1  1       464  ultralytics.nn.modules.Conv                  [3, 16, 3, 2]                 \n  1                  -1  1      4672  ultralytics.nn.modules.Conv                  [16, 32, 3, 2]                \n  2                  -1  1      7360  ultralytics.nn.modules.C2f                   [32, 32, 1, True]             \n  3                  -1  1     18560  ultralytics.nn.modules.Conv                  [32, 64, 3, 2]                \n  4                  -1  2     49664  ultralytics.nn.modules.C2f                   [64, 64, 2, True]             \n  5                  -1  1     73984  ultralytics.nn.modules.Conv                  [64, 128, 3, 2]               \n  6                  -1  2    197632  ultralytics.nn.modules.C2f                   [128, 128, 2, True]           \n  7                  -1  1    295424  ultralytics.nn.modules.Conv                  [128, 256, 3, 2]              \n  8                  -1  1    460288  ultralytics.nn.modules.C2f                   [256, 256, 1, True]           \n  9                  -1  1    164608  ultralytics.nn.modules.SPPF                  [256, 256, 5]                 \n 10                  -1  1         0  torch.nn.modules.upsampling.Upsample         [None, 2, 'nearest']          \n 11             [-1, 6]  1         0  ultralytics.nn.modules.Concat                [1]                           \n 12                  -1  1    148224  ultralytics.nn.modules.C2f                   [384, 128, 1]                 \n 13                  -1  1         0  torch.nn.modules.upsampling.Upsample         [None, 2, 'nearest']          \n 14             [-1, 4]  1         0  ultralytics.nn.modules.Concat                [1]                           \n 15                  -1  1     37248  ultralytics.nn.modules.C2f                   [192, 64, 1]                  \n 16                  -1  1     36992  ultralytics.nn.modules.Conv                  [64, 64, 3, 2]                \n 17            [-1, 12]  1         0  ultralytics.nn.modules.Concat                [1]                           \n 18                  -1  1    123648  ultralytics.nn.modules.C2f                   [192, 128, 1]                 \n 19                  -1  1    147712  ultralytics.nn.modules.Conv                  [128, 128, 3, 2]              \n 20             [-1, 9]  1         0  ultralytics.nn.modules.Concat                [1]                           \n 21                  -1  1    493056  ultralytics.nn.modules.C2f                   [384, 256, 1]                 \n 22        [15, 18, 21]  1   1004275  ultralytics.nn.modules.Segment               [1, 32, 64, [64, 128, 256]]   \nYOLOv8n-seg summary: 261 layers, 3263811 parameters, 3263795 gradients, 12.1 GFLOPs\n\nTransferred 381/417 items from pretrained weights\nTensorBoard: Start with 'tensorboard --logdir runs/segment/train', view at http://localhost:6006/\nAMP: running Automatic Mixed Precision (AMP) checks with YOLOv8n...\nDownloading https://github.com/ultralytics/assets/releases/down
…
